…
[2023-05-08 06:17:13,692][__main__][INFO] - gamma set to 0.9861111111111112
[2023-05-08 06:17:13,692][train][WARNING] - CUDA not available, falling back to CPU
[2023-05-08 06:17:13,694][__main__][INFO] - gamma set to 0.9861111111111112
[2023-05-08 06:17:13,694][train][WARNING] - CUDA not available, falling back to CPU
/home/ubuntu/miniconda3/envs/hsd3/lib/python3.8/site-packages/gym/spaces/box.py:73: UserWarning: [33mWARN: Box bound precision lowered by casting to float32[0m
  logger.warn(
[2023-05-08 06:17:19,650][train][INFO] - Model from config:
ModuleDict(
  (pi): Sequential(
    (0): FlattenSpace()
    (1): SkipNetwork(
      (layers): ModuleList(
        (0): Linear(in_features=73, out_features=1024, bias=True)
        (1-3): 3 x Linear(in_features=1097, out_features=1024, bias=True)
      )
    )
    (2): GaussianFromEmbedding(
      (mu): Linear(in_features=1024, out_features=6, bias=True)
      (log_std): Linear(in_features=1024, out_features=6, bias=True)
    )
    (3): TransformDistribution()
  )
  (q): Sequential(
    (0): FlattenSpace()
    (1): SkipDoubleQNetwork(
      (l0): Linear(in_features=79, out_features=2048, bias=True)
      (layers): ModuleList(
        (0-2): 3 x GroupedLinear(in_features=2206, out_features=2048, groups=2, bias=True)
      )
      (lN): GroupedLinear(in_features=2048, out_features=2, groups=2, bias=True)
    )
  )
  (reachability): Sequential(
    (0): FlattenSpace()
    (1): SkipNetwork(
      (layers): ModuleList(
        (0): Linear(in_features=79, out_features=1024, bias=True)
        (1-3): 3 x Linear(in_features=1103, out_features=1024, bias=True)
      )
    )
    (2): Linear(in_features=1024, out_features=1, bias=True)
    (3): SqueezeLastDim()
  )
)
[2023-05-08 06:17:21,307][train][INFO] - Model from config:
ModuleDict(
  (pi): Sequential(
    (0): FlattenSpace()
    (1): SkipNetwork(
      (layers): ModuleList(
        (0): Linear(in_features=73, out_features=1024, bias=True)
        (1-3): 3 x Linear(in_features=1097, out_features=1024, bias=True)
      )
    )
    (2): GaussianFromEmbedding(
      (mu): Linear(in_features=1024, out_features=6, bias=True)
      (log_std): Linear(in_features=1024, out_features=6, bias=True)
    )
    (3): TransformDistribution()
  )
  (q): Sequential(
    (0): FlattenSpace()
    (1): SkipDoubleQNetwork(
      (l0): Linear(in_features=79, out_features=2048, bias=True)
      (layers): ModuleList(
        (0-2): 3 x GroupedLinear(in_features=2206, out_features=2048, groups=2, bias=True)
      )
      (lN): GroupedLinear(in_features=2048, out_features=2, groups=2, bias=True)
    )
  )
  (reachability): Sequential(
    (0): FlattenSpace()
    (1): SkipNetwork(
      (layers): ModuleList(
        (0): Linear(in_features=79, out_features=1024, bias=True)
        (1-3): 3 x Linear(in_features=1103, out_features=1024, bias=True)
      )
    )
    (2): Linear(in_features=1024, out_features=1, bias=True)
    (3): SqueezeLastDim()
  )
)
[2023-05-08 06:17:24,856][__main__][ERROR] - Error in training loop
Traceback (most recent call last):
  File "pretrain.py", line 935, in worker
    train_loop_mfdim_actor(setup)
  File "pretrain.py", line 575, in train_loop_mfdim_actor
    cperf_new = eval_mfdim(setup, setup.n_samples)
  File "pretrain.py", line 409, in eval_mfdim
…
